model/trained_hgt_model_dummydata.pth (torch, 12800 bytes, 5 tensors)

node_type_embedding.weight f4 [1, 32]
0	0xbf530492	-0.8242885
1	0xbf0946ab	-0.53623456
2	0xc012d582	-2.2942815
3	0x3f697008	0.9118657
4	0x3e53eea6	0.20696506
5	0xbfecfb2a	-1.8514149
6	0x3f938e36	1.1527774
7	0x3ea1e1e9	0.31617668
8	0xbfddd635	-1.7330996
9	0xbecbbbbc	-0.39791667
10	0x3fb476a5	1.4098707
11	0xbe33206b	-0.17492835
12	0x3e0abb25	0.13547952
13	0xbf13c784	-0.5772631
14	0x3ee1ac8d	0.44076958
15	0xbf09047a	-0.53522456
16	0x3fbc6640	1.4718704
17	0x3fd87eb5	1.6913668
18	0xbe1df09a	-0.15423813
19	0xbed8d8d0	-0.42352915
20	0x3db7abad	0.089682914
21	0x3d90075f	0.07032656
22	0x3e94ad4b	0.29038462
23	0xbf3b0965	-0.7306121
24	0xbfae614a	-1.362344
25	0xbf111911	-0.56678873
26	0xbe77648f	-0.24159454
27	0x3fb1a35d	1.387798
28	0x3f339df2	0.7016288
29	0xbe81a426	-0.25320548
30	0xc0273238	-2.61244
31	0xbf2e3214	-0.68045163

layer1.linear.weight f4 [32, 8]
0	0xbe0023a7	-0.125136
1	0x3ea1cf38	0.31603408
2	0x3e9137d7	0.28362915
3	0xbe202164	-0.15637738
4	0xbccc17f6	-0.02491377
5	0x3e5fcdc9	0.21855845
6	0xbd9a28b4	-0.07527295
7	0xbda1a44c	-0.07892665
8	0xbe408066	-0.1879898
9	0xbd5971e7	-0.05308714
10	0x3d3986e7	0.04529467
11	0x3dbd5062	0.092438474
12	0x3e7102f6	0.23536286
13	0xbe84d643	-0.2594472
14	0xbea3e6f8	-0.32012153
15	0x3e867ee8	0.26268697
16	0x3dbea25f	0.093083136
17	0xbeb3e1e7	-0.35133287
18	0x3e7adb6a	0.24497762
19	0xbdc0d5b9	-0.09415764
20	0x3e98ca3f	0.29841802
21	0xbe55774a	-0.20846286
22	0xbe623366	-0.2208992
23	0x3c1b4de6	0.009479022
24	0xbe6980d1	-0.22803046
25	0x3e541e6a	0.20714727
26	0x3e875320	0.26430607
27	0xbd4d6213	-0.05014236
28	0x3de4eef9	0.11178393
29	0x3e71be8f	0.23607849
30	0xbe9ea3f5	-0.30984464
31	0x3d244de3	0.04011334
32	0x3eb0e98e	0.34553188
33	0xbeaae447	-0.33377287
34	0xbe941ae4	-0.28926766
35	0x3e510043	0.20410256
36	0x3e9ac883	0.30231103
37	0xbe46b0e8	-0.19403422
38	0x3c65d8b6	0.014028719
39	0xbe29fb7b	-0.16599838
40	0xbe943117	-0.28943703
41	0xbeb2a358	-0.34890246
42	0xbe8dfa29	-0.2772992
43	0xbd6198d4	-0.05507739
44	0x3d2066f5	0.039160687
45	0x3e897d83	0.2685357
46	0x3d583f93	0.052795004
47	0x3e3d7a3f	0.18503664
48	0xbeab48aa	-0.33453876
49	0x3e8c8d3d	0.27451506
50	0xbe32b766	-0.17452773
51	0xbe7bc4d9	-0.2458681
52	0x3e982cd5	0.29721704
53	0x3dd56174	0.10418978
54	0x3e46252a	0.19350114
55	0xbe95c626	-0.29252738
56	0x3e5fa0cd	0.21838684
57	0xbd5397c6	-0.051658414
58	0x3e8690fa	0.26282483
59	0x3e067a34	0.13132554
60	0x3dabc71d	0.08387587
61	0x3dcd66fc	0.10029408
62	0xbe85ee9a	-0.261586
63	0xbe73fa7d	-0.23826022
64	0x3deac671	0.11463631
65	0x3e81ebee	0.25375313
66	0x3e915a64	0.28389275
67	0x3ea37246	0.3192312
68	0x3d4919ef	0.049096998
69	0x3dffb16e	0.12485014
70	0xbead1bf1	-0.3381038
71	0xbdcea6ad	-0.10090385
72	0xbe6d5cc2	-0.23179916
73	0xbc1597e6	-0.009130454
74	0xbe248b43	-0.16068749
75	0x3e922fc4	0.28552067
76	0x3dd1481e	0.102188334
77	0x3dc22bd1	0.094810136
78	0x3e08e08a	0.13366905
79	0x3e84200e	0.25805706
80	0x3e20bc97	0.15696941
81	0x3eac0f28	0.33605313
82	0xbdb99532	-0.0906166
83	0x3e468045	0.19384868
84	0x3e292eaa	0.16521707
85	0x3db3d438	0.08780712
86	0x3d115cbb	0.035488825
87	0xbe13a423	-0.14418082
88	0x3dcd52e4	0.10025576
89	0xbe315b39	-0.17319955
90	0x3ea3b0a0	0.31970692
91	0x3d0e804a	0.034790315
92	0xbd9532d1	-0.07285083
93	0xbea7bc70	-0.32760954
94	0xbea1b1e8	-0.31581044
95	0xbd5d71a3	-0.05406345
96	0x3e351462	0.17683557
97	0x3e56d19e	0.209784
98	0xbe503769	-0.20333637
99	0x3c34e0e0	0.0110399425
100	0xbafd4e00	-0.0019325614
101	0xbdcfaa94	-0.10139957
102	0xbd697d48	-0.057004243
103	0xbe624718	-0.22097433
104	0xbea3a0af	-0.3195853
105	0x3e11ae24	0.14226586
106	0xbe25c506	-0.1618844
107	0xbdaf9be8	-0.08574659
108	0x3bd86f00	0.006605029
109	0xbdb2e93c	-0.08735892
110	0x3e353e22	0.17699483
111	0x3dc238c0	0.094834805
112	0xbea12ea7	-0.31480905
113	0xbdf8ae64	-0.12142637
114	0xbe38d91c	-0.1805157
115	0xbd519f90	-0.05117756
116	0xbd6d6740	-0.057959795
117	0x3e8bbadf	0.2729101
118	0xbe3e1777	-0.18563639
119	0xbe7babf8	-0.2457732
120	0xbe073434	-0.13203508
121	0xbd3a71c0	-0.045518637
122	0xbe4b144d	-0.19831963
123	0xbe2ecd4c	-0.17070502
124	0xbdb0d5c4	-0.086345226
125	0x3caa9f40	0.02082789
126	0xbeb08a77	-0.3448064
127	0x3e57ea6e	0.21085522
128	0x3d9c38f8	0.076280534
129	0x3e94d727	0.29070398
130	0xbe2bb1ec	-0.1676709
131	0xbea4779b	-0.32122502
132	0xbe49cb9c	-0.19706577
133	0x3dd081b8	0.10180992
134	0xbc9c79b0	-0.019100994
135	0xbdaf8394	-0.085700184
136	0xbdae117f	-0.08499431
137	0xbd1d4860	-0.0383991
138	0x3d7c6bce	0.061626248
139	0x3dd273fc	0.102760285
140	0xbe9a5dbf	-0.30149648
141	0x3ea961b7	0.33082363
142	0xbdfb66f6	-0.122754976
143	0xbeafa5c3	-0.34306154
144	0xbe2e8dfc	-0.1704635
145	0x3e22b5f0	0.15889716
146	0x3dac6ded	0.08419404
147	0x3e0a678c	0.13516062
148	0x3e8e10ba	0.27747136
149	0x3ea1e580	0.31620407
150	0x3c94abc8	0.018148318
151	0xbe0293cc	-0.12751693
152	0x3e9468e6	0.2898628
153	0xbe9fa1eb	-0.3117822
154	0xbd621585	-0.055196304
155	0x3dc4fb97	0.096182995
156	0x3e0113e7	0.12605248
157	0x3e247592	0.16060475
158	0xbd9964b1	-0.074899085
159	0x3e927cfe	0.28610986
160	0xbe037d3a	-0.12840739
161	0xbe4d4dce	-0.20049211
162	0x3dbf1f78	0.09332174
163	0x3ce1b978	0.027554259
164	0xbe50322b	-0.20331638
165	0x3e593bfc	0.21214288
166	0xbe007c26	-0.12547359
167	0x3dbd7f7d	0.09252832
168	0xbcf90f63	-0.030402845
169	0x3e7196db	0.23592703
170	0x3e50bca4	0.2038446
171	0xbd8745ed	-0.06605134
172	0xbdd89e26	-0.105770394
173	0x3e8f7c09	0.2802432
174	0xbe9b2e54	-0.30308783
175	0x3e380624	0.17971092
176	0xbe8140b9	-0.25244692
177	0xbeb90912	-0.36139733
178	0xbc40b940	-0.011762917
179	0xbcc0f80d	-0.02355578
180	0x3e6004de	0.21876857
181	0x3daf9e4f	0.08575117
182	0xbe8db569	-0.27677467
183	0x3e199789	0.14999212
184	0xbb165c00	-0.002294302
185	0xbe835545	-0.25650993
186	0xbe580bc9	-0.21098246
187	0x3dddf6f1	0.10838116
188	0xbd06e0d3	-0.032929253
189	0xbdc7ccd8	-0.09755868
190	0x3e5532f8	0.20820224
191	0x3bc99a42	0.006152422
192	0x3d8609af	0.06544816
193	0x3e89e61a	0.26933366
194	0xbdc61f6a	-0.096739605
195	0xbea9f66c	-0.33195817
196	0x3e8d2302	0.2756577
197	0x3cf99c7b	0.030470124
198	0xbeadd3f9	-0.33950785
199	0x3e1cbec1	0.15307142
200	0xbe22d153	-0.15900163
201	0xbe8e6da3	-0.2781802
202	0x3ea6c932	0.32575375
203	0xbe59f23d	-0.21283813
204	0xbe2a6fa7	-0.16644154
205	0x3d865ab1	0.06560267
206	0xbddb8b51	-0.10719932
207	0x3e81bfe9	0.25341728
208	0xbeaa2e43	-0.3323842
209	0xbe3b611a	-0.1829876
210	0xbe3936d0	-0.18087316
211	0x3e73c633	0.23806076
212	0x3e94675a	0.289851
213	0xbe456160	-0.19275427
214	0x3dd7cfc3	0.10537674
215	0x3ea1d946	0.3161108
216	0xbe0bdee0	-0.13659239
217	0xbe718a1e	-0.23587844
218	0x3eaa62c8	0.3327849
219	0xbd515626	-0.05110755
220	0xbdfbb0e5	-0.12289599
221	0xbe2995a3	-0.16560988
222	0x3e85057b	0.25980744
223	0xbd0dae38	-0.034589976
224	0x3bdae485	0.0066800737
225	0x3d0cf70e	0.034415297
226	0x3ce73569	0.02822371
227	0xbe3b463e	-0.18288514
228	0xbe3c214c	-0.18372077
229	0xbe352836	-0.1769112
230	0xbb15530f	-0.0022785102
231	0x3e8952cf	0.2682099
232	0xbe776b7a	-0.24162093
233	0xbe9da16e	-0.30787224
234	0x3d7d34a8	0.061817795
235	0xbdd0b618	-0.101909816
236	0x3dac1a90	0.08403504
237	0xbdf2d4c8	-0.11856991
238	0xbd61a800	-0.055091858
239	0xbe90bfde	-0.28271383
240	0x3d58461b	0.052801233
241	0x3ea79bdf	0.32736108
242	0xbe015cd8	-0.12633073
243	0xbe1df8ce	-0.15426943
244	0x3e7e70cc	0.24847716
245	0xbdd98fdc	-0.10623142
246	0x3eaa1efb	0.3322676
247	0x3e170fc0	0.14752102
248	0xbe031937	-0.12802587
249	0x3e7bb9c8	0.24582589
250	0x3e89416a	0.2680772
251	0x3e4a4f8c	0.19756907
252	0x3e918e91	0.28429082
253	0x3ea473c1	0.32119563
254	0x3e3116b2	0.17293814
255	0xbe524eac	-0.20537823

layer1.linear.bias f4 [32]
0	0xbe8eff12	-0.27928978
1	0x3e9adb4a	0.3024543
2	0xbe144778	-0.14480388
3	0x3e48e6e3	0.19619326
4	0x3e2dc82d	0.16970892
5	0x3cd3d356	0.025857609
6	0x3ea543c1	0.32278255
7	0xbe384df2	-0.17998484
8	0xbe926548	-0.28592896
9	0xbe471a97	-0.19443737
10	0x3d17ef9c	0.037093744
11	0x3eb479d1	0.3524919
12	0xbe06498e	-0.13113996
13	0xbeac37fc	-0.33636463
14	0x3e91ee09	0.2850192
15	0x3e0dcea4	0.13848358
16	0xbd9d69a4	-0.07686165
17	0xbe9d168e	-0.3068127
18	0xbe7db9a7	-0.24777852
19	0xbeafa166	-0.34302825
20	0x3b81b96d	0.003958872
21	0xbe4fbefe	-0.20287701
22	0xbe1de556	-0.15419516
23	0x3eb19d8a	0.34690505
24	0x3e0ad445	0.13557537
25	0x3e41901f	0.18902634
26	0x3ea89888	0.32928872
27	0xbde72ccf	-0.112878434
28	0x3e0efe7b	0.13964264
29	0xbe4199e3	-0.1890636
30	0x3dae4f33	0.085112
31	0xbe75289b	-0.23941271

layer2.linear.weight f4 [64, 33]
0	0x3d58b3a4	0.052905694
1	0x3ca5e948	0.020252839
2	0x3db915e0	0.090373755
3	0xbab48580	-0.0013772696
4	0x3dcfcc5c	0.101464
5	0x3d97df60	0.07415652
6	0xbdfa45f5	-0.122203745
7	0xbd7e180e	-0.06203466
8	0x3daff428	0.08591491
9	0xbe169c61	-0.14708091
10	0x3cb96fe8	0.022636369
11	0x3cc94bc8	0.024572268
12	0x3dab73f0	0.08371723
13	0xbd7d992c	-0.061913654
14	0xbc47a320	-0.012184888
15	0xbdd52770	-0.10407913
16	0x3e287f06	0.16454706
17	0xbc0aeab0	-0.008478805
18	0xbe1b89c7	-0.15189277
19	0xbe129aa0	-0.14316797
20	0xbcbbf3f8	-0.022943482
21	0x3d5698f8	0.052391976
22	0xbdd4eb35	-0.10396425
23	0xbdf9758e	-0.12180625
24	0xbdc0fff6	-0.09423821
25	0xbd8a6910	-0.0675832
26	0x3dae6b5c	0.08516571
27	0xbe323456	-0.17402777
28	0xbd39a5c0	-0.045324087
29	0x3e09af78	0.13445842
30	0x3da0b094	0.078461796
31	0xbcd018d0	-0.025402457
32	0x3d382356	0.044955574
33	0xbe1e964b	-0.1548702
34	0x3d907458	0.07053441
35	0xbe11890e	-0.14212438
36	0x3d3f6520	0.0467273
37	0xbe244be6	-0.16044578
38	0xbdd2a58f	-0.10285484
39	0x3e231d80	0.15929222
40	0x3e14c255	0.14527257
41	0xbcdaf251	-0.026726874
42	0xbd15ea8d	-0.03660064
43	0x3db51071	0.088410266
44	0xbdb7a2d7	-0.08966606
45	0xbcf4a6e0	-0.029864728
46	0xbdb47a5b	-0.088124
47	0x3db89d9c	0.090144366
48	0x3dced664	0.100994855
49	0x3e086828	0.13320982
50	0xbd995aac	-0.074879974
51	0xbdef5952	-0.116869584
52	0xbd75b108	-0.059983283
53	0xbe0280f1	-0.127445
54	0xbca21ada	-0.019788194
55	0xbc5cfb63	-0.01348767
56	0x3cc3c8fb	0.023899546
57	0x3e251963	0.16122966
58	0xbd6f3667	-0.05840149
59	0xbd97ceec	-0.07412514
60	0xbd53c98b	-0.05170588
61	0x3d9a5c88	0.0753718
62	0x3c67d020	0.014148742
63	0x3dba44d8	0.09095162
64	0x3e0bfdda	0.13671055
65	0x3e20b110	0.15692544
66	0x3cc17c15	0.023618737
67	0xbb3385f4	-0.0027393075
68	0xbe1f06ce	-0.1552994
69	0x3b8c0f41	0.0042742793
70	0x3d936736	0.0719742
71	0xbd870227	-0.065922074
72	0x3e2ee46e	0.17079327
73	0x3d9f9f44	0.077940494
74	0x3bdd29ec	0.0067493822
75	0xbde33b51	-0.11095298
76	0x3d933bae	0.07189117
77	0xbbac502d	-0.005258581
78	0x3c9d2af8	0.019185528
79	0xbdfda0e4	-0.12384203
80	0x3e2d03a8	0.16895926
81	0xbda632d5	-0.08115164
82	0xbdcc8572	-0.0998639
83	0xbddc1337	-0.107458524
84	0x3b2a508a	0.0025987946
85	0xbdcc7a6a	-0.09984286
86	0xbc603dd3	-0.013686615
87	0x3d361a9b	0.044458967
88	0xbcd3cac3	-0.02585352
89	0x3bd919a0	0.006625369
90	0x3dea1283	0.11429312
91	0xbded1d3e	-0.11577843
92	0x3e00ac5b	0.12565748
93	0xbe35c60a	-0.17751327
94	0xbddda7ee	-0.10823046
95	0xbdafcba2	-0.08583762
96	0xbdef7ac5	-0.11693338
97	0x3dcb8b6a	0.099387005
98	0x3da68adc	0.08131954
99	0x3d4daa0f	0.05021101
100	0x3e0b0114	0.1357463
101	0x3e161f84	0.1466046
102	0x3e1453b3	0.14485054
103	0xbd5f0230	-0.054445446
104	0x3db9641f	0.090523
105	0xbd1427c8	-0.03617075
106	0xbe0da87d	-0.13833804
107	0x3d980677	0.07423108
108	0x3dfa6fb4	0.12228337
109	0xbe16d4b4	-0.14729577
110	0xbe35a842	-0.17739967
111	0xbcf86ec0	-0.030326247
112	0x3d73df58	0.05953917
113	0x3c128fc0	0.0089454055
114	0xbc598e70	-0.013278589
115	0x3e101bda	0.14073125
116	0xbe2c297f	-0.16812705
117	0x3e18d026	0.14923152
118	0x3c73eded	0.014888269
119	0xbdc0a3a2	-0.094062105
120	0xbe15f011	-0.1464236
121	0xba9e5cbe	-0.0012082083
122	0xbdab71b3	-0.08371296
123	0xbe2c7202	-0.16840366
124	0xbdc596d5	-0.096479096
125	0xbe1d6f5e	-0.15374514
126	0xbe34a13f	-0.17639636
127	0xbdd8bdaa	-0.105830505
128	0x3c710740	0.014711201
129	0xbdbc8cdb	-0.092065535
130	0xbce7578a	-0.028239984
131	0x3ded64ea	0.115915135
132	0x3d8420ec	0.06451592
133	0x3d6b9b1c	0.05752097
134	0x3dbe45f2	0.09290685
135	0x3de230a6	0.11044435
136	0xbd86b1e2	-0.06576897
137	0x3d22a607	0.039709117
138	0xbe0cb115	-0.13739426
139	0xbe3b2558	-0.18275964
140	0x3dcd545a	0.100258544
141	0xbd8a02b2	-0.06738795
142	0xbde48c43	-0.11159565
143	0x3d802d5a	0.0625865
144	0xbdc4ed2f	-0.09615552
145	0xbba3d860	-0.005000159
146	0x3d93e880	0.0722208
147	0x3ba918e0	0.005160436
148	0x3d805a84	0.062672645
149	0xbe2487f7	-0.16067491
150	0xbd89c5ae	-0.067271575
151	0xbcfdf342	-0.030999783
152	0x3de8241a	0.11335011
153	0x3b23cb55	0.0024993022
154	0x3d66a61d	0.05631076
155	0x3d92bb81	0.0716467
156	0xbdc69ecc	-0.09698257
157	0xbe2b6791	-0.16738726
158	0x3da7e5f1	0.08198155
159	0x3e24e230	0.16101909
160	0x3c7ea1ba	0.015541488
161	0xbdd5771d	-0.1042311
162	0xbe257093	-0.16156225
163	0x3d7e7962	0.06212748
164	0xbd34477f	-0.044013496
165	0xbd7e5042	-0.06208826
166	0xbcd308a0	-0.025760949
167	0x3ac29400	0.0014845133
168	0xbdcea541	-0.100901134
169	0xbe139203	-0.14411168
170	0x3e225cc8	0.15855706
171	0xbe23b2a0	-0.15986109
172	0xbdb36083	-0.087586425
173	0x3e1bddf6	0.1522139
174	0xbd8e8100	-0.069581985
175	0xbdde949a	-0.10868187
176	0x3de0bcb4	0.10973492
177	0x3d18f20c	0.03734021
178	0xbe3129bb	-0.17301075
179	0x3d80007c	0.062500924
180	0x3d918ae0	0.071065664
181	0xbb8e8920	-0.0043498427
182	0xbde376af	-0.111066215
183	0xbe160728	-0.14651167
184	0xbb9582c0	-0.0045627058
185	0xbc995db0	-0.018721431
186	0x3cc07480	0.023493052
187	0xbdefd571	-0.117106326
188	0x3dbc4b8c	0.09194097
189	0x3ba6ea20	0.005093828
190	0xbdd7c3bf	-0.105353825
191	0xbe212684	-0.15737349
192	0x3dc1d71c	0.09464857
193	0xbe268b9f	-0.16264199
194	0xbd92ae34	-0.07162133
195	0x3d946d96	0.07247464
196	0xbdb3fca9	-0.087884255
197	0xbbf61920	-0.0075103194
198	0x3daeaec2	0.08529426
199	0x3dfa3516	0.122171566
200	0x3d374c0a	0.04475025
201	0x3e087e63	0.13329463
202	0x3e2130db	0.15741293
203	0xbd4b96ee	-0.049704485
204	0xbcdb9678	-0.026805148
205	0x3e17eff4	0.14837629
206	0xbd0b8364	-0.03406085
207	0x3e1c4a09	0.15262617
208	0xbe01b447	-0.12666427
209	0xbd926847	-0.071487956
210	0x3d0dcbfc	0.034618363
211	0xbe0a5538	-0.13509071
212	0x3d183bc0	0.037166357
213	0xbe18cd18	-0.14921987
214	0x3de14390	0.10999215
215	0xbc0dc7cb	-0.008653591
216	0xbe238f77	-0.15972696
217	0xbc1aa1dc	-0.009438004
218	0x3cd59b64	0.026075073
219	0xbd92dffb	-0.07171627
220	0x3de1c44b	0.11023768
221	0xbd452ecd	-0.048140336
222	0xbc235b00	-0.009970427
223	0x3d86f967	0.065905385
224	0x3c150e4e	0.009097649
225	0xbc3396ba	-0.010961229
226	0x3ddc3aa2	0.10753371
227	0xbd4608f0	-0.048348367
228	0xbcf5443a	-0.02993976
229	0xbe305c7e	-0.17222783
230	0x3e066c09	0.1312715
231	0x3e1c2dce	0.15251848
232	0xbe1a67ef	-0.1507871
233	0xbdf321d4	-0.118716866
234	0xbd2a8438	-0.04163
235	0xbd7d407c	-0.061829075
236	0xbd7a2c00	-0.061077118
237	0x3d52746c	0.05138056
238	0x3d2accd4	0.041699246
239	0x3cd16060	0.02555865
240	0xbb913a40	-0.004431993
241	0x3e0e4700	0.13894272
242	0x3c266e90	0.010158196
243	0x3dd79b18	0.10527629
244	0x3deaab88	0.11458498
245	0x3b099680	0.0020994246
246	0x3dbeec00	0.09322357
247	0x3dc0a524	0.09406498
248	0xbd6607e8	-0.056159884
249	0xbc067020	-0.008205444
250	0xbe0b17de	-0.13583323
251	0xbe1db668	-0.15401614
252	0xbd5c39ba	-0.05376599
253	0x3c9a0bd8	0.018804476
254	0x3c8ebf58	0.017425224
255	0x3e0e72a4	0.1391092

layer2.linear.bias f4 [64]
0	0x3dbe6c3e	0.09297989
1	0x3e01dd2d	0.12682028
2	0x3d4f4127	0.050599243
3	0xbe075c37	-0.13218771
4	0xbc0528a8	-0.008127369
5	0xbdcc4d43	-0.09975674
6	0xbc0d25aa	-0.008614937
7	0xbd390730	-0.04517287
8	0xbe0dc156	-0.13843283
9	0xbe217022	-0.15765432
10	0x3c895a16	0.01676659
11	0x3de83d46	0.11339812
12	0xbe0d1972	-0.13779238
13	0x3ce43f98	0.027862355
14	0x3cc27f9f	0.023742495
15	0xbc700200	-0.014648914
16	0x3c24912f	0.01004438
17	0xbd8f1aa7	-0.069875054
18	0x3b66ede0	0.0035237
19	0x3dccbfbc	0.09997508
20	0x3df40db4	0.11916676
21	0x3c7553f8	0.014973633
22	0x3e0c5f06	0.13708124
23	0x3d6f3283	0.05839778
24	0x3d3a2cb1	0.045452777
25	0xbdb27475	-0.08713619
26	0xbcc23d26	-0.023710798
27	0x3ddce328	0.10785514
28	0xbd6512ac	-0.05592601
29	0xbdc8e7d9	-0.098098464
30	0x3dbaa87d	0.09114168
31	0xbde88895	-0.11354176
32	0xbcd8b61b	-0.026454022
33	0x3e07c987	0.1326047
34	0x3d619cf1	0.05508131
35	0xbdc944fc	-0.09827611
36	0x3e09255f	0.13393162
37	0x3dc50263	0.09619596
38	0xbd836127	-0.06415015
39	0x3de23102	0.11044504
40	0xbcf9042a	-0.030397493
41	0x3d29b850	0.04143554
42	0xbdc68724	-0.09693745
43	0xbd90804c	-0.07055721
44	0x3de3cd5a	0.11123152
45	0x3e1f020c	0.15528125
46	0x3dd7557e	0.10514353
47	0x3e0ee47a	0.13954344
48	0xbc5d918b	-0.01352347
49	0x3e06f9de	0.13181254
50	0xbe045ca3	-0.12925963
51	0x3dea8b3d	0.11452339
52	0xbd8ca755	-0.068678536
53	0xbe1e3dcc	-0.15453261
54	0xbe0fee7c	-0.14055818
55	0xbda59ef4	-0.080869585
56	0x3d83bb85	0.06432251
57	0x3d1e80af	0.03869694
58	0xbdafac39	-0.08577771
59	0xbe0f2567	-0.13979112
60	0x3d14d751	0.036338154
61	0xbd99e6a2	-0.07514693
62	0x3dbcaab8	0.092122495
63	0xbe30d2e0	-0.17267942
