model/trained_hgt_model_realdata.pth (torch, 12919 bytes, 5 tensors)

node_type_embedding.weight f4 [1, 32]
00000000: 34fd 53bf 6376 09c0 268a e43e c869 1bc0
00000010: e854 373e cec2 26bf fac9 e93f 48f4 0940
00000020: dd75 99be 6363 fa3d 416b 823e 080c 89bf
00000030: ae05 243f 2195 ca3b a7fa 21be c898 6bbf
00000040: 8623 7e3f d9b7 cebb 2945 923f d3b3 d13d
00000050: 32a6 e33e e191 e2be 04e8 0740 8a0b 853f
00000060: 551e bdbe 09e0 623f 2b1d 1b3f c49e ab3f
00000070: a72f 5fbf dd7c bbbf def9 713f 6cea 753f
-0.8280823 -2.1478508 0.4463665 -2.4283314 0.17903483 -0.65141 1.8264763 2.1555347
-0.29972735 0.12225988 0.25472453 -1.0706797 0.64071167 0.0061823283 -0.15818273 -0.9203
0.99272954 -0.0063085374 1.1427356 0.10239377 0.44462734 -0.44251922 2.123536 1.0394146
-0.36937204 0.886231 0.6059138 1.3407826 -0.87182087 -1.464748 0.9452189 0.96060824

layer1.linear.weight f4 [32, 9]
00000000: 3523 0f3d a1d3 9ebd 68e9 893d 67e9 cd3d
00000010: 1ff1 75be 61cf a23e 3af4 d23d 9f92 163d
00000020: 40a5 993e 44fc 913d 3b28 a63e 8054 03bd
00000030: ceb9 a4be f4df db3d aeef 77be e3dd 4dbe
00000040: 0063 a7bd 60c7 3cbe 9888 79be d6d9 573e
00000050: 0016 fdbd 523d 1d3e 93d5 77be a0cf 3b3d
00000060: 98b2 6ebd ae81 2c3e 50a6 24be bebb 873d
00000070: 7ca1 6b3d bca0 ecbd c91c 37be 8d73 4a3e
00000080: 3a81 b4bc ea9d 063e c9bf e0bb adcb 92be
00000090: 1a96 1c3e e05d 793e 2ab0 d33d 672b 82bd
000000a0: e77c 02be 6fd6 1cbe 2f80 0abe 34bb 013c
000000b0: 9288 9e3e 08aa 25be a83d 5c3d 6871 a0be
000000c0: b64d 00be 4e79 8cbe 687a 85be a8e0 1fbd
000000d0: d3ba 9dbe ce2b 3cbe 491a 8e3e ccbd 1b3e
000000e0: 4725 75be 5e8e 1fbd 720c bebd 0107 d6bc
000000f0: ce3d e1bd d878 44be df45 433e 4dcb a33e
00000100: 9595 14be 2352 9b3e cf22 9bbe 4e04 81be
00000110: 811d 773e d855 5c3e 430e 9fba bb36 803e
00000120: 25bf 9e3e a9f7 12be 18cc 85be accd 27bd
00000130: a29e 39bb 6795 0abe e5bf 8a3e 8921 52be
00000140: 2a28 dcbd 2cf6 6abc 88cc c6bc c136 88be
00000150: cbe5 da3d ddf5 62bc d6c3 443d 82cd 56be
00000160: 9c71 4ebe 6339 1f3e b101 21be 0532 9e3e
00000170: a4fb 50bc 421d 0bbe da56 8bbe c9ad 643d
00000180: 687c 0d3e ee05 4ebe 14fb 3b3d ce9b 523e
00000190: 6baf 88be a0e0 ed3d d059 8fbe e2dd 673e
000001a0: aba9 a0be 80c0 37bb bb16 71be db35 39be
000001b0: a243 8dbe 7d28 a93d 9959 ae3e 0fc4 893a
000001c0: 1142 d43d 6b5f 04bd 4620 5e3d 6e3d 973d
000001d0: e2fe 9d3e dc0d edbd 8260 a4be 36cb 7d3e
000001e0: 469f 9abe 8771 a93e 5812 7e3d 7e43 48be
000001f0: 185a 7ebd 40d0 29bd b0c3 373e 78fb 6e3d
00000200: 58c7 6f3d 48ee 963e e371 f0bd 2cb7 e83d
00000210: 1420 47bc 0e68 90be c671 16be 62c8 0dbe
00000220: e13f 963e fdbf 573d 40f5 783e 64f6 98bd
00000230: 5220 56be e4e5 c63c 69a9 21bd 717e f53c
00000240: 66f8 753e 664e 973e 98cd 8dbe fc48 673e
00000250: 59a3 3c3e ea76 92be 3746 373e 59e0 973e
00000260: f318 59be e8f6 7bbe 5577 31be 0ff6 863d
00000270: f1a8 efbd 43dc 70bd a0b7 843e d2d5 583e
00000280: 14ae 363e 7b4e f73d d6d5 293e be36 813d
00000290: 3e0e 82be 0994 a63d cc4e e43d 966f 593e
000002a0: d023 ca3d 0733 7dbe c4f9 8e3e 8a65 59be
000002b0: 2126 873e b8b4 86be 3a0a 653c 960a 23bd
000002c0: d14b e9bd 5a5c 34be 033a 883e 7f79 f73d
000002d0: c7b5 7abe b1f3 953e e32e a4be 7d65 8fbe
000002e0: 5524 8e3d 7801 99be e261 52be 005a 13be
000002f0: f44d 9e3d 6ad6 5a3e 7eac 62be d871 5e3d
00000300: d909 903e f6c6 ebbd c3b3 5dbe 1342 86be
00000310: 00d3 8b3c fa3f 8bbe a06c 773d 4727 873e
00000320: 6401 d53d 20e3 f43d a450 b53d e846 6f3d
00000330: cb1d 60be 9e09 7cbe 20a0 f9bd 017e 003e
00000340: d06c 6b3e 32f0 603e a424 813e a25d 763e
00000350: 76a0 d33d bb95 133e 4450 abbd a4d0 85bd
00000360: 54f1 753e 85e6 fb3d ff66 13be 9790 b8bd
00000370: d657 9fbd 2f12 683e 040d 94be 5354 90be
00000380: eac3 fd3c 3870 44be 508f 3f3c abad 18bd
00000390: 5b59 9f3d fcae d83d 1278 50bd df18 7c3e
000003a0: 7619 6cbe fbff ce3d 319a 44be 6a40 25bc
000003b0: b906 313e a8f5 9d3e db67 813c 8e98 453e
000003c0: c67a 293e 0103 02be d9c8 aa3c 2e02 8ebe
000003d0: 98d4 45bd f202 733e 36ff d1bd 660f 573e
000003e0: 205c 54bd ab5e 77be 886a 56be 23b9 50be
000003f0: cbee 45be 7396 9c3d 70b6 25be 5892 7dbd
0.034945685 -0.07755209 0.06733972 0.100542836 -0.24017762 0.31798843 0.10300489 0.036760923
0.30008888 0.07128194 0.32452568 -0.032063007 -0.32173008 0.10736075 -0.24212524 -0.20104174
-0.081731796 -0.1843543 -0.24368513 0.21079192 -0.12357712 0.15355423 -0.24202566 0.045852304
-0.05827579 0.16846344 -0.16079068 0.06627606 0.05752705 -0.11554095 -0.17882074 0.19770642
-0.022034276 0.13146177 -0.0068588 -0.28671017 0.15291634 0.24352217 0.10336335 -0.063559346
-0.12742959 -0.15316175 -0.1352546 0.007918168 0.3096357 -0.16178143 0.053769737 -0.31336522
-0.12529644 -0.27436298 -0.2606995 -0.03903261 -0.30806598 -0.18376085 0.2775443 0.1520912
-0.23940001 -0.03895413 -0.092797175 -0.026126387 -0.109981164 -0.19186723 0.19069622 0.31991044
-0.14510186 0.30336103 -0.30299994 -0.25198597 0.24132349 0.21517122 -0.0012134988 0.25041756
0.31005207 -0.14352287 -0.26132274 -0.04096763 -0.0028323312 -0.13533555 0.2709953 -0.20520605
-0.10749848 -0.0143409185 -0.02426745 -0.26604274 0.10688361 -0.013852564 0.048038326 -0.20976833
-0.20160526 0.15549235 -0.15723301 0.30897537 -0.012755308 -0.1358538 -0.272147 0.055829797
0.13816988 -0.2011945 0.045893744 0.20567247 -0.26696333 0.116151094 -0.2799821 0.22643235
-0.31379446 -0.0028038323 -0.23543827 -0.1808695 -0.27590662 0.08259676 0.34052733 0.00105107
0.10364164 -0.03231756 0.054229997 0.07384764 0.30858523 -0.11574909 -0.3210488 0.2478455
-0.3019964 0.33094427 0.062029213 -0.19556996 -0.06209764 -0.04145837 0.17945743 0.058345288
0.05853972 0.2947867 -0.11740472 0.11363062 -0.012153644 -0.28204387 -0.14691839 -0.13845971
0.2934561 0.05267333 0.24312305 -0.0746887 -0.20910767 0.024279542 -0.039468203 0.029967519
0.24020538 0.29552 -0.27695918 0.22586435 0.18421687 -0.2860635 0.17897879 0.2966335
-0.21200924 -0.24605906 -0.17330678 0.06589901 -0.11702145 -0.058803808 0.25921345 0.21175316
0.17839843 0.12075516 0.16585478 0.06309269 -0.2540149 0.08133704 0.11147842 0.21233973
0.09870112 -0.24726497 0.2792493 -0.2123014 0.26396278 -0.26309752 0.013979489 -0.039805017
-0.11391414 -0.17613354 0.2660676 0.120837204 -0.24483405 0.29287484 -0.32067022 -0.28007117
0.069405235 -0.29883933 -0.20545152 -0.14389801 0.07729712 0.21370855 -0.22136113 0.05430779
0.28132513 -0.11512558 -0.21650605 -0.26222286 0.017068386 -0.27197248 0.060406327 0.26397154
0.10400656 0.11957383 0.088532716 0.05841723 -0.21886365 -0.24613044 -0.121887445 0.12548067
0.22990727 0.21966627 0.25223267 0.24059156 0.1033334 0.14412586 -0.08364919 -0.06533936
0.2401784 0.122998275 -0.14394759 -0.09011953 -0.07780425 0.22663186 -0.2891618 -0.28189334
0.030977208 -0.19183433 0.011691883 -0.037274998 0.07780715 0.105802506 -0.050895758 0.24618863
-0.23056588 0.10107418 -0.19199444 -0.010086158 0.1728772 0.30851483 0.015796592 0.19296476
0.1655074 -0.12696458 0.020847725 -0.27736038 -0.04829845 0.23731592 -0.10253756 0.21001968
-0.05184567 -0.24157207 -0.20939076 -0.20383124 -0.19329374 0.076458834 -0.16182876 -0.061907142

layer1.linear.bias f4 [32]
00000000: e3c5 abbe 3f3e 983e 9abe 88be dd67 84bc
00000010: eb84 9ebe ca7e 8bbe 79cc 86bd e27e 61be
00000020: 6635 9bbd 103d 10be e3a6 55be 505f e83d
00000030: 12b0 823e e02a 9f3d 8966 6f3e cbde 613d
00000040: 98e0 6dbe 9a8a 0c3e c6bf eebb 899e 2a3e
00000050: 5e7a ae3d 6b6c 49be ab94 25be 417b 96bb
00000060: 834c 7dbe 659d fd3d 3844 963e fcd7 96bd
00000070: ec1f 93bd 084b 923e 071c 57be 2244 843d
-0.33549413 0.2973499 -0.26707917 -0.016162807 -0.30960783 -0.2724517 -0.06581969 -0.22021058
-0.07578544 -0.14085793 -0.20864443 0.113463044 0.25524956 0.0777185 0.23378958 0.055144113
-0.23230207 0.13724747 -0.007286045 0.16662039 0.085194334 -0.19670264 -0.16169994 -0.0045923297
-0.24736218 0.12383536 0.29348922 -0.073654145 -0.07183823 0.2857287 -0.21006785 0.06458308

layer2.linear.weight f4 [64, 33]
00000000: d4ab 34bd c08d 3a3d c9c5 ddbd bcb2 d9bd
00000010: 58c1 d5bd 489d d73d 5065 2fbe ea5c d9bd
00000020: 9c0e b3bd 8e49 273e 6c7c e73d d8b6 2dbd
00000030: 205e aa3c 0d96 14be 8cee 25bd 7888 fd3c
00000040: 4034 72bb 58ca 003e 66ad c1bd daa0 2c3e
00000050: 8029 f6bb e840 5a3d 61fc 25be 34ef e73d
00000060: da6b 213e d4ff b63d ccd9 ae3d 718c 06be
00000070: 08d9 d7bc 5ca7 2c3d e8d0 a2bc 48b7 09be
00000080: 8756 88bd 9721 7f3d 98ca 5e3d 444e 01bd
00000090: fa3a e4bd 8e15 0ebd 4e48 28be 7ae2 e03d
000000a0: 3a60 593d 4093 05be 6c81 37be cac4 06be
000000b0: caf8 59bd b430 393d c061 97bc 881c 1fbe
000000c0: 2144 183e e2f5 d7bd 0344 e2bd e738 1ebe
000000d0: bdea b6bd 474d 17be 38ba 1c3e c04d 683b
000000e0: ed7f 8ebd 7964 ca3c 00cb 353d 281a 243e
000000f0: ab98 09be 880f bf3d 8fcc 8d3d 1c1f cf3d
00000100: 6ce3 dd3d f530 de3d 1059 c8bd 8c40 003d
00000110: 7080 f83d 69c8 edbd de5f 12be 9cd3 a73d
00000120: e08e 0ebe f7ab e0bd 2f85 293d 4b43 1b3e
00000130: 0d67 de3d 974e 8abd 39dd adbd d64c 2b3e
00000140: 5863 0838 fa7d bebc afcd e83d 113c 26be
00000150: 515b 63bd c7f6 213e 06c4 1f3c 168d 2fbe
00000160: 50d5 cf3c 4dd6 28be 4296 ab3c 3e7e 05be
00000170: add0 f6bd b278 8ebd 2b64 c63d fc13 c03d
00000180: 7384 8b3c a55e d63d 8595 853d 016d dc3d
00000190: 7884 143e 3448 b73d 82b3 f23d 70f6 113e
000001a0: a6c1 1dbe 0c11 5bbd f600 2dbe 5cf7 99bc
000001b0: 86f6 86bc 6330 ac3d 7048 c6bc 26e1 3e3d
000001c0: 5572 20be 1d82 1fbe 71aa 103e 8501 063d
000001d0: 4dd0 1bbe 6ec2 223e d838 b7bd f35f 37be
000001e0: e0e1 c53b c60a 12be 0605 e73d db1f 3ebd
000001f0: c3e5 9c3d 1b7e f03c cf79 fdbd 9643 d63d
00000200: 0ddb ea3d 230c 25be dc57 a03b 6312 cabd
00000210: b669 f9bd 505d d43d 8475 2fbe 46d8 883d
00000220: 5d96 013d e27e f8bd 0292 c6bd be85 163e
00000230: 983b 713d fdfc 0f3d e9cc 8cbb a38c e2bd
00000240: 422f d5bd 95ff 30be f085 27be 0711 223e
00000250: 4df4 9cbb a338 a93d ef71 eebb 0dea 283d
00000260: c7a1 013e 320e f5bd 5424 27be 9bcc 16be
00000270: ac21 27bd ee4c c43c 6799 13bd da9d 953d
00000280: cd52 743d 68bc 093e 83fb 04bd c114 34bd
00000290: 74a4 053e 4d99 183e 4776 28be 4c85 fb3d
000002a0: e27e 25bd f626 02be 2ed7 8a3d 6eb1 0f3e
000002b0: 8528 e4bd bab5 1e3d 5671 653d 5799 e73d
000002c0: 50ca 3c3c a609 81bd 2440 c73d e2c3 883d
000002d0: 3178 f63d dbde 963d 7696 0c3e 1087 64bd
000002e0: 3182 cc3d e737 8f3d 836b 03be a8de e43d
000002f0: a274 d63d 7396 9abd 44c3 72bc bf96 783d
00000300: ade3 2cbe 4d75 c2bd a2ce 8bbd 3e45 e73d
00000310: f50d 30be 27db 693c ffb2 1cbd a071 343c
00000320: b065 1e3e 15ad 37be 6419 21be c0d2 a8bb
00000330: 01d6 273e db38 6bbd 7e6b c1bd 9c4c 333d
00000340: 2434 013e 4c43 53bd 9d70 bcbd fe7b d0bd
00000350: 1b20 59bc 4e54 263d 3853 d2bd 76b4 f5bd
00000360: 4844 c23d 9fd2 033e 8a78 8b3c c434 b63d
00000370: 8e18 60bd 9015 24be 28ec 303d 2226 2cbe
00000380: a500 4d3d 28b1 10bd 4bdd c4bd 6221 89bd
00000390: 986f 1c3e 3d1b a1bc bc0e 163e bf50 f4bd
000003a0: 38f6 da3d 707b 313e 53fa 0fbe fa4a 23bd
000003b0: 18e8 c2bc 5768 de3d 55a6 3bbe 1f1b 883d
000003c0: 5fec 9ebd b5be b4bd 9039 2f3e baba b93d
000003d0: e04b fd3d bf81 243e 0b72 a6bd 7309 d0bd
000003e0: deb0 8e3d 20db 9f3d 947e 08bd 2d7c 8d3d
000003f0: 8a5c 143e b8d3 203e bc33 103d 48de e73d
-0.04410918 0.04554534 -0.1082874 -0.10629794 -0.10437268 0.10528046 -0.17128491 -0.10613425
-0.08743021 0.16336653 0.113030285 -0.0424107 0.020796835 -0.14510365 -0.0405107 0.030948862
-0.0036957413 0.12577188 -0.09456901 0.16858235 -0.0075122714 0.053284556 -0.16209556 0.11324921
0.15763798 0.08935514 0.08537635 -0.13139512 -0.026348606 0.042151794 -0.019875005 -0.13448822
-0.06657129 0.062287893 0.054392427 -0.03156878 -0.111440614 -0.034688525 -0.16433832 0.10980697
0.053070284 -0.13044453 -0.17920464 -0.13161007 -0.05321578 0.045212463 -0.018479228 -0.15538228
0.14869739 -0.10544945 -0.110481285 -0.15451394 -0.089314915 -0.14775573 0.15305412 0.0035446733
-0.06957994 0.024706112 0.04438305 0.16025603 -0.13437144 0.09329134 0.06923782 0.101133555
0.10834393 0.108491816 -0.09782612 0.031311557 0.121338725 -0.11610491 -0.14294383 0.08194658
-0.1392169 -0.109703 0.04138678 0.15162389 0.10859499 -0.06753271 -0.084894605 0.1672853
3.2517448e-05 -0.02325343 0.11367356 -0.16233851 -0.055507008 0.15816794 0.0097513255 -0.17143664
0.02537027 -0.16488 0.020945672 -0.13036439 -0.120515205 -0.069566146 0.09687074 0.09378812
0.01703093 0.10467271 0.06522659 0.10762978 0.14503658 0.089493185 0.11850645 0.14254165
-0.15405902 -0.053483054 -0.16894898 -0.018794708 -0.016474973 0.084076665 -0.024204463 0.046601437
-0.15668614 -0.15576978 0.14127518 0.032716293 -0.15216179 0.15894482 -0.08946389 -0.17907695
0.0060388893 -0.14261922 0.11280255 -0.0464171 0.07661011 0.029357007 -0.12376749 0.1046211
0.11467562 -0.16117911 0.004893286 -0.09866788 -0.12178366 0.103693604 -0.17134672 0.06681876
0.03163754 -0.12133576 -0.096958175 0.14699456 0.058894724 0.035153378 -0.004296888 -0.110619806
-0.10409404 -0.17284997 -0.16359687 0.15826808 -0.004789865 0.08262756 -0.0072767655 0.041238833
0.1265937 -0.11965598 -0.16322452 -0.14726488 -0.040803596 0.023962464 -0.036034968 0.073054984
0.059649277 0.13450778 -0.032466423 -0.043965105 0.13051015 0.1490223 -0.16451369 0.12281284
-0.040404208 -0.12710175 0.067793235 0.14032528 -0.11140541 0.038747527 0.05601629 0.11308544
0.011522844 -0.063006684 0.09729031 0.06677987 0.120346434 0.07366725 0.13729271 -0.05579287
0.099857695 0.069930844 -0.12833981 0.11175281 0.10471465 -0.07548227 -0.014817063 0.060690638
-0.16883726 -0.094950296 -0.068265215 0.11292504 -0.17192824 0.014273441 -0.03825664 0.011013418
0.15468478 -0.1793712 -0.15732342 -0.0051520765 0.1639023 -0.05742727 -0.09444331 0.043774232
0.12617546 -0.05157785 -0.09201167 -0.101799 -0.013252283 0.040607743 -0.10269779 -0.11997311
0.0948568 0.12873314 0.017025251 0.08896783 -0.054710917 -0.1602385 0.043193966 -0.16811422
0.050049443 -0.0353252 -0.09612521 -0.066958204 0.15276945 -0.019666309 0.14654058 -0.119294636
0.10691494 0.17332244 -0.14060335 -0.039866425 -0.023792312 0.10859745 -0.1832517 0.06645798
-0.07759928 -0.08825437 0.17111802 0.090688184 0.12367988 0.16065119 -0.08127221 -0.10158052
0.069673285 0.07805467 -0.03332384 0.0690845 0.14488426 0.15705764 0.035205588 0.11321694

layer2.linear.bias f4 [64]
00000000: ea17 15be 0588 cdbd adc4 a33c 2959 0a3e
00000010: d70e c23d 4538 e0bd 227e 4bbc b717 bb3d
00000020: 3a67 21be cfed 2dbe 773f 543d 4f1c 64bd
00000030: 57a5 eb3d 48ba 97bc 895d dd3d 2ee3 f43d
00000040: 30c4 0cbe 3399 e93d c68c 0fbd c8b7 28be
00000050: 46d1 ff3d f6ba f13d 407c 12bd 51ce cb3d
00000060: e6be 95bc f317 873d 604a 87bd 2c9f 9c3c
00000070: 85ea fbbc bb27 2d3c c3f4 273e 70a4 2dbe
00000080: c7ba 5b3d 8bac 683d f3d9 c5bd 533a 663d
00000090: ef92 4ebd 8ee5 103e 22e0 ee3d ffb4 adbd
000000a0: 96e3 383e 8423 22bd acf8 333e 4aba cd3d
000000b0: 6fcb 90bd b90c 7cbd 831d b6bd f1b1 0fbe
000000c0: d9d0 943b 7a4d 87bd 7f5f 70bd 4aeb 933d
000000d0: c8ad e83d a2c3 a63d 5ce6 a5bc a16a 37bd
000000e0: 067c e9bd 0776 173e e68f 30be fd6b e63d
000000f0: 2589 98bd 757a 91bd 9ebb c2bc 33e2 bf3d
-0.14559904 -0.10035709 0.019991243 0.13510574 0.09475487 -0.109482326 -0.012420209 0.091353826
-0.15762034 -0.16985248 0.051818337 -0.05569106 0.115061454 -0.018521443 0.10808856 0.119573936
-0.13746715 0.114061736 -0.03504636 -0.16476357 0.124910876 0.11803238 -0.035763025 0.09951461
-0.018279504 0.06596365 -0.06605983 0.019118868 -0.030751476 0.0105685545 0.16401963 -0.16957259
0.05364492 0.056805175 -0.09660711 0.056207966 -0.050433096 0.14150068 0.11663844 -0.08481788
0.18055567 -0.03958465 0.1757533 0.100452974 -0.07070052 -0.06153557 -0.08892348 -0.14032723
0.004541498 -0.06606574 -0.058684822 0.07222612 0.11361271 0.08142783 -0.020251445 -0.044779424
-0.11400609 0.14791118 -0.17242393 0.11251066 -0.07448033 -0.07103435 -0.023771103 0.09369316
